…
cution":{"iopub.status.busy":"2024-08-06T15:46:17.672373Z","iopub.execute_input":"2024-08-06T15:46:17.672649Z","iopub.status.idle":"2024-08-06T15:46:17.723226Z","shell.execute_reply.started":"2024-08-06T15:46:17.672626Z","shell.execute_reply":"2024-08-06T15:46:17.720321Z"},"trusted":true},"execution_count":35,"outputs":[{"name":"stdout","text":"Model: \"sequential\"\n_________________________________________________________________\n Layer (type)                Output Shape              Param #   \n=================================================================\n conv2d (Conv2D)             (None, 224, 224, 32)      4736      \n                                                                 \n batch_normalization (Batch  (None, 224, 224, 32)      128       \n Normalization)                                                  \n                                                                 \n activation (Activation)     (None, 224, 224, 32)      0         \n                                                                 \n max_pooling2d (MaxPooling2  (None, 112, 112, 32)      0         \n D)                                                              \n                                                                 \n conv2d_1 (Conv2D)           (None, 112, 112, 64)      18496     \n                                                                 \n batch_normalization_1 (Bat  (None, 112, 112, 64)      256       \n chNormalization)                                                \n                                                                 \n activation_1 (Activation)   (None, 112, 112, 64)      0         \n                                                                 \n max_pooling2d_1 (MaxPoolin  (None, 56, 56, 64)        0         \n g2D)                                                            \n                                                                 \n conv2d_2 (Conv2D)           (None, 56, 56, 128)       73856     \n                                                                 \n batch_normalization_2 (Bat  (None, 56, 56, 128)       512       \n chNormalization)                                                \n                                                                 \n activation_2 (Activation)   (None, 56, 56, 128)       0         \n                                                                 \n max_pooling2d_2 (MaxPoolin  (None, 28, 28, 128)       0         \n g2D)                                                            \n                                                                 \n global_average_pooling2d (  (None, 128)               0         \n GlobalAveragePooling2D)                                         \n                                                                 \n dense (Dense)               (None, 128)               16512     \n                                                                 \n dropout (Dropout)           (None, 128)               0         \n                                                                 \n dense_1 (Dense)             (None, 64)                8256      \n                                                                 \n dropout_1 (Dropout)         (None, 64)                0         \n                                                                 \n dense_2 (Dense)             (None, 1)                 65        \n                                                                 \n=================================================================\nTotal params: 122817 (479.75 KB)\nTrainable params: 122369 (478.00 KB)\nNon-trainable params: 448 (1.75 KB)\n_________________________________________________________________\n","output_type":"stream"}]},{"cell_type":"code","source":"initial_learning_rate 
…
tion":{"iopub.status.busy":"2024-08-06T16:25:38.016729Z","iopub.execute_input":"2024-08-06T16:25:38.017031Z","iopub.status.idle":"2024-08-06T16:25:38.062268Z","shell.execute_reply.started":"2024-08-06T16:25:38.017005Z","shell.execute_reply":"2024-08-06T16:25:38.061313Z"},"trusted":true},"execution_count":67,"outputs":[{"name":"stdout","text":"Model: \"sequential_1\"\n_________________________________________________________________\n Layer (type)                Output Shape              Param #   \n=================================================================\n resnet50 (Functional)       (None, 7, 7, 2048)        23587712  \n                                                                 \n global_average_pooling2d_1  (None, 2048)              0         \n  (GlobalAveragePooling2D)                                       \n                                                                 \n dense_3 (Dense)             (None, 512)               1049088   \n                                                                 \n dropout_2 (Dropout)         (None, 512)               0         \n                                                                 \n dense_4 (Dense)             (None, 256)               131328    \n                                                                 \n dropout_3 (Dropout)         (None, 256)               0         \n                                                                 \n dense_5 (Dense)             (None, 1)                 257       \n                                                                 \n=================================================================\nTotal params: 24768385 (94.48 MB)\nTrainable params: 1180673 (4.50 MB)\nNon-trainable params: 23587712 (89.98 MB)\n_________________________________________________________________\n","output_type":"stream"}]},{"cell_type":"code","source":"from tensorflow.k
…
